cube/deep_q_learning_model.pkl (torch, 243689 bytes, 20 tensors)

weight f4 [9, 54]
000000 45 f0 26 bf bd dd 21 bf 21 bb 51 bf c0 cc 35 bf
       -0.6521037 -0.6322897 -0.8192616 -0.7101555
000010 ce 70 2c bf a5 75 23 bf 23 cd 8d bf 7a 01 8e bf
       -0.67359626 -0.63851386 -1.1078228 -1.1094201
000020 e2 51 86 bf 65 bf a3 bf ea 4f 85 bf 78 53 84 bf
       -1.0493739 -1.2792784 -1.0415013 -1.0337973
000030 a2 f4 21 bf 3c 21 16 bf b6 8e 0f bf 82 39 67 bf
       -0.63263905 -0.5864446 -0.56077135 -0.90322125
000040 e9 71 ee be d0 f4 e5 be b7 5f 34 bf 85 a3 48 bf
       -0.46571282 -0.4491334 -0.7045855 -0.7837451
000050 a4 37 99 bf cf fb 43 bf 77 7e 4d bf 2b 57 36 bf
       -1.1970105 -0.76556104 -0.80271095 -0.7122676
000060 0b 1e 4e 40 21 c2 a3 3c 13 d6 fb bd 31 7b 46 bd
       3.2205837 0.019990029 -0.12296691 -0.04845733
000070 e1 53 f2 bd dc 0c af bd 9d 5b 45 bf 69 7f 26 bf
       -0.11832405 -0.085473746 -0.77092916 -0.6503816
000080 71 47 20 bf 45 c8 17 bf 0c c8 23 bf 3e 33 15 bf
       -0.6260901 -0.5928996 -0.6397712 -0.58281314
000090 6b f7 10 3f a3 71 6f 3f b1 94 e1 bd 5b 4f 42 3f
       0.5662753 0.9353277 -0.11014689 0.75902337
0000a0 0b 40 51 3f 7b 29 40 3f 64 66 ae 3c 84 c1 9a 3e
       0.81738347 0.75063294 0.021289058 0.30225766
0000b0 8b f8 38 3e 13 f8 c3 3e 03 ed 41 3e 8f 4e 93 3e
       0.18063562 0.38275203 0.18938069 0.28770873
0000c0 30 1c ac 3e 28 48 19 3f 6d 1d 11 3f 0f c6 70 3f
       0.33615255 0.59875727 0.56685525 0.94052213
0000d0 e8 ba 2f 3f 2c af 2b 3f 15 38 55 be 75 69 2f 3e
       0.6864457 0.67064166 -0.20822175 0.17130072
0000e0 8b 7f 46 bd 04 9e be 3e fa b8 11 3f a8 04 a0 3d
       -0.04846148 0.3722993 0.56922877 0.07813388
0000f0 61 00 b5 3d 4e 25 f6 3e 4a b3 b9 3e 24 23 2c 3f
       0.08837963 0.48075336 0.362696 0.6724112
000100 24 90 fe 3e 68 6e e1 3e 50 9c e3 be f9 56 49 be
       0.49719346 0.44029546 -0.44455194 -0.19662084
000110 f2 f3 87 be dc c4 d0 3e 00 eb 9c be f5 b3 86 be
       -0.26553303 0.40775192 -0.3064804 -0.2630917
000120 c6 04 db be 36 84 54 bd d5 90 85 be dc cd 10 be
       -0.4277708 -0.0518839 -0.2608706 -0.14141029
000130 90 1c 68 3e e5 29 09 be cf 1a e0 bf 2d 69 33 bc
       0.22667146 -0.13394888 -1.7508181 -0.010950369
000140 1b 2d cd be ac 1a 04 bc 6d a6 5d 3d bc 0d 39 be
       -0.40073475 -0.008063 0.054113794 -0.18071645
000150 a8 05 3c bf 1e 60 e6 be 0a 4f 2c bf 8f 28 05 bf
       -0.7344613 -0.44995207 -0.67308104 -0.5201501
000160 0f d0 04 bf 33 b5 19 bf 7a 4b 06 3f f1 1f a7 3f
       -0.5187997 -0.60042113 0.5245892 1.3056623
000170 b3 75 04 3f 94 49 7b 3f 06 8e 63 3f 04 4a 4e 3f
       0.51742095 0.98159146 0.88888586 0.8058169
000180 20 e1 4b 3f e3 e1 c0 3f f1 89 93 3f 2d 85 88 3f
       0.7964039 1.5068935 1.1526471 1.0665642
000190 46 a1 9d 3f 7b 05 97 3f ca c1 61 3e 5e f4 1d 3f
       1.2314842 1.1798548 0.22046581 0.61701
0001a0 32 a6 34 3e 39 9a f9 3e 3d 03 ef 3e b3 1e d0 3e
       0.17641523 0.48750475 0.46682158 0.40648422
0001b0 a3 92 e6 3f fa 8c cd 3f f9 b9 ca 3f 82 1c e0 3f
       1.80135 1.6058648 1.5838004 1.75087
0001c0 c2 75 bf 3f 64 ee be 3f e1 7c eb 3f c0 b9 c5 3f
       1.4957812 1.4916501 1.8397485 1.5447311
0001d0 d1 e5 c6 3f de f9 d2 3f b2 0f c6 3f d0 3f ba 3f
       1.5538884 1.6482503 1.547354 1.4550724
0001e0 41 0a 92 3f 7e 88 42 3f 4c 95 48 3f ad 73 99 3f
       1.1409379 0.7598952 0.7835281 1.1988426
0001f0 9c c9 c4 3e 9c f5 2d 3f 4b 6d 08 40 88 d4 eb 3f
       0.38435066 0.67952895 2.1316707 1.8424234
000200 b3 93 eb 3f f8 ef e2 3f a6 c7 e1 3f 29 ef da 3f
       1.8404449 1.7729483 1.7639053 1.7104236
000210 2b dd bc c0 fd 7c 49 bd 96 48 42 3e 25 3b 60 be
       -5.901998 -0.049191464 0.18973002 -0.21897562
000220 ce 2e 3a bb 1f d7 39 3e 36 cc d0 3f 63 e9 a2 3f
       -0.0028409245 0.18148468 1.631232 1.2727474
000230 9c 40 8c 3f 33 1b 96 3f 68 8d 79 3f 8e 32 8b 3f
       1.0957217 1.172705 0.97481394 1.0874803
000240 40 4a 97 3f ca b3 c9 3f 2d 94 89 3f fc 33 89 3f
       1.1819534 1.5757992 1.0748345 1.0718989
000250 83 1e 80 3f 0d fe 6a 3f dd 9e a4 3f 0d 7d b5 3f
       1.0009311 0.917939 1.2860981 1.4178787
000260 fa bd 82 3f 58 90 72 3f b6 12 87 3f a5 ec 7b 3f
       1.0214226 0.947515 1.0552585 0.98407966
000270 56 1a 52 3f 6c 8a 28 3f 4e ba a0 3e ad bb 11 3f
       0.82071435 0.65836215 0.3139214 0.56926996
000280 7e 0d 04 3f da cc e1 3e ad 59 ed be 43 d9 53 be
       0.5158309 0.44101602 -0.4635748 -0.20688348
000290 1c d1 9f be ab c6 73 bc 9e ca 6b 3f 27 ab ff bd
       -0.31214225 -0.014878909 0.92106044 -0.124838166
0002a0 ab db 0f be 68 9d 28 be c3 b5 b4 bc c0 55 31 3c
       -0.1404864 -0.16466296 -0.022059327 0.010823667
0002b0 f4 37 2c 3b 16 92 ed 3d 89 8a 8e be 48 df 06 bf
       0.0026278468 0.11600129 -0.2784007 -0.5268445
0002c0 2f 35 e8 bd c1 38 02 be e0 f8 3e be 42 7a 43 bd
       -0.11338269 -0.12716962 -0.18649626 -0.047724016
0002d0 90 a7 2b bf 34 87 a8 be 98 5f 10 bf 52 52 41 be
       -0.67052555 -0.32915652 -0.56395864 -0.18879059
0002e0 75 61 a2 3e c0 88 cf bd b7 11 cd bf 2a ce 8a bd
       0.3171498 -0.10133505 -1.6021031 -0.06777604
0002f0 95 2f 77 bc ae 26 29 be 23 58 25 bd d6 30 b3 be
       -0.015087028 -0.16518661 -0.040367257 -0.34998196
000300 30 a9 bd be 63 cf a4 bd 56 e6 4d be a0 9a e7 3c
       -0.37043142 -0.080473684 -0.20107397 0.028271973
000310 6a 7e 83 be 0d fb 16 bd 07 6f a3 bf f8 51 19 bf
       -0.25682384 -0.036860514 -1.2768258 -0.598907
000320 68 e6 92 bf 91 7d 34 bf 74 8e 30 bf 29 14 40 bf
       -1.1476564 -0.705041 -0.68967366 -0.7503076
000330 ad 00 80 bf 86 53 c9 be 6f 9d 31 bf 39 ad 22 bf
       -1.0000206 -0.39321536 -0.6938085 -0.63545567
000340 6f 61 29 bf 23 38 d9 be ab 3b 8c bf 7f b9 3a bf
       -0.66164297 -0.4242564 -1.0955709 -0.72939295
000350 f8 d1 44 bf 8f ac 57 bf 8c 58 49 bf 15 b1 46 bf
       -0.76882887 -0.8424768 -0.78650737 -0.77613956
000360 ee 3d a3 bf d4 b5 b7 bf a1 4c ac bf 2f 8a af bf
       -1.2753274 -1.4352365 -1.3460885 -1.3714045
000370 21 2a cd bf c8 c1 b1 bf cb 66 c8 bf cb 31 da bf
       -1.6028482 -1.3887262 -1.565637 -1.7046446
000380 c7 ec d5 bf 4b fc d4 bf 7d 4f d8 bf 0b a9 cb bf
       -1.6712884 -1.6639494 -1.6899258 -1.5910963
000390 c8 a7 70 bf 31 14 a9 bf 5e 3b 9a bf b7 84 81 bf
       -0.94006014 -1.3209287 -1.2049367 -1.0118626
0003a0 70 a7 9b bf b2 bd 96 bf a5 38 cf bf ac ac d2 bf
       -1.2160473 -1.177664 -1.6189162 -1.6458945
0003b0 fe 79 d7 bf 91 87 e1 bf c6 c4 e8 bf 76 55 d3 bf
       -1.6834104 -1.7619497 -1.818505 -1.6510456
0003c0 ba a2 c8 3f 26 ec ab 3d 37 9f a5 3e 4a 72 3e 3e
       1.567466 0.08394651 0.32348034 0.18598285
0003d0 b7 5e 8a bd 0b ea 57 bd 18 a5 a3 bf 24 2a ad bf
       -0.06756347 -0.052713435 -1.2784758 -1.3528485
0003e0 3c ff da bf cc 95 bb bf fe 6d ba bf ee 95 b1 bf
       -1.7109141 -1.4655089 -1.4564817 -1.387388
0003f0 9a f9 44 bf 9a 11 52 be 6d ed 3c bf 37 61 6e bf
       -0.7694336 -0.20514527 -0.73799783 -0.9311709

bias f4 [9]
000000 73 88 7f 40 6a 3c 29 c0 23 dd e2 c0 53 ce cf bf
       3.9927032 -2.6443124 -7.089494 -1.623484
000010 d8 fc 03 3f 60 1f ff bf 3d 7e ad 40 9d c4 0b 40
       0.51557684 -1.993145 5.42166 2.1838753
000020 c5 1b 98 3f
       1.1883475

weight f4 [9, 54]
000000 cb 00 bf be 09 72 a2 be de f1 f9 be 5e db 8a be
       -0.37305292 -0.31727627 -0.48817343 -0.2712049
000010 94 ee ce be 7e da e1 be 43 bb 98 be 8c 9c 9c be
       -0.40416396 -0.4411201 -0.2983037 -0.30588186
000020 da 5a c2 be 03 1f c0 be b0 1f aa be ce 5d db be
       -0.3795994 -0.3752366 -0.332273 -0.42845005
000030 b6 50 49 3f 67 88 2b 3f 87 89 24 3f 12 ee 56 3f
       0.7863878 0.6700501 0.6427235 0.83957016
000040 cb ae 26 3f ce a6 ab 3e d8 57 f9 be 70 4a ca be
       0.6511046 0.335257 -0.48699832 -0.39509916
000050 48 ec ff be 22 bd 08 bf 5e 84 e0 be 54 80 08 bf
       -0.49984956 -0.53413594 -0.43850988 -0.53320813
000060 19 db 99 be 27 26 91 bf f8 5d 25 3e 7e 50 89 bd
       -0.3004997 -1.1339768 0.16149127 -0.06704806
000070 8c 70 c1 ba 0a 1e 38 be 67 69 3e 3f 2b 63 e5 3e
       -0.0014758273 -0.17980209 0.7437958 0.44802222
000080 c8 76 17 3f 9d 0f 17 3f 99 c9 2a 3f 69 21 51 3e
       0.5916562 0.590082 0.66713864 0.20422901
000090 eb 0e f6 3f 31 03 c5 3f 4e 8f e9 3f 4d 4a 04 40
       1.9223303 1.5391599 1.8246858 2.067035
0000a0 14 94 21 40 8c d9 ec 3f 73 f5 09 40 00 3c d0 3f
       2.524663 1.850389 2.155606 1.626831
0000b0 25 df 08 40 92 46 08 40 c6 fc 31 40 e3 4d 04 40
       2.1386197 2.1293073 2.781053 2.0672538
0000c0 6a 9f 4f 40 85 fd 17 40 12 40 41 40 45 6a 4e 40
       3.2441049 2.3748486 3.0195355 3.2252362
0000d0 bb ad 6a 40 7d af 2d 40 ba 82 93 bf 4b b6 85 bf
       3.6668537 2.713836 -1.152427 -1.0446256
0000e0 a0 14 a4 bf 71 19 9d bf 4f 94 b0 bf c3 33 a5 bf
       -1.2818794 -1.2273389 -1.379526 -1.2906421
0000f0 44 2b ae bf 9b 8f 7d bf c9 48 c1 bf 90 4c b7 bf
       -1.3606954 -0.9904725 -1.5100337 -1.432024
000100 7c a3 b4 bf 77 27 a7 bf b1 3a cf bf 43 54 9d bf
       -1.4112391 -1.3058919 -1.6189786 -1.229134
000110 08 dd d1 bf 78 cb d4 bf f0 88 e0 bf 70 55 cf bf
       -1.6395578 -1.6624594 -1.754179 -1.6197948
000120 ee b9 dc bf 77 3e a9 bf 00 d7 f7 bf be 99 e9 bf
       -1.7244241 -1.3222188 -1.9362488 -1.8250043
000130 7f 95 f4 bf 42 d5 e2 bf b6 83 48 bc 4d f2 8a 40
       -1.9108123 -1.7721331 -0.012238434 4.3420777
000140 05 86 02 be 16 b6 2d be 88 4d cd 3d c6 e0 5b 3e
       -0.12746437 -0.16963992 0.100245535 0.21472463
000150 90 9d 12 c0 53 75 b2 bf b1 f3 12 c0 b1 9f 11 c0
       -2.2908669 -1.3942055 -2.2961237 -2.2753718
000160 93 e4 13 c0 73 b7 07 c0 de df 06 bf 26 a6 cd be
       -2.310826 -2.1205719 -0.52685344 -0.40165824
000170 b0 01 18 be 29 cb 19 bf d6 c4 60 bf 60 b5 25 bf
       -0.14844394 -0.6007562 -0.8780035 -0.6472988
000180 ec ba 39 bf 06 4a 93 be c9 44 7a be b3 fb 38 bf
       -0.72550845 -0.28767413 -0.24440302 -0.7225906
000190 cc b5 66 bf c9 7e 23 bf 6b 3a 5e bf a2 2d 2c bd
       -0.9012115 -0.63865334 -0.8680789 -0.042035706
0001a0 cf ec cc be 60 dc 62 bf 38 83 8b bf a8 f9 4a bf
       -0.4002442 -0.88617516 -1.089942 -0.79287195
0001b0 3d 34 65 bf db 43 8b bf dd d1 44 bf 16 d6 8b bf
       -0.89532834 -1.0880083 -0.76882726 -1.0924709
0001c0 51 50 84 bf c0 df 34 bf 08 fe 96 bf aa 57 c9 bf
       -1.0337011 -0.70653915 -1.1796274 -1.5729878
0001d0 42 b0 87 bf 5f cf 92 bf 46 7d b0 bf 32 06 87 bf
       -1.0600665 -1.1469535 -1.378823 -1.0548766
0001e0 2a 28 8a be 80 f7 ad be 5e 64 19 be 42 ac cc be
       -0.26983768 -0.3397789 -0.14979693 -0.39975172
0001f0 a4 ac a7 be bd e8 f0 bd 84 c8 01 c0 63 e1 03 c0
       -0.32748902 -0.11763141 -2.0278635 -2.0606315
000200 5a 27 07 c0 86 53 05 c0 40 f9 0f c0 09 eb f1 bf
       -2.1117768 -2.0832229 -2.249588 -1.8899852
000210 8f 39 d3 3d 81 b8 7c 40 2e 85 4c bc 53 2d 01 be
       0.10313713 3.9487612 -0.012482924 -0.12614946
000220 52 2d 8b bc ca 8c c7 3d 67 07 67 bf 28 91 fe be
       -0.016989384 0.0974365 -0.9024567 -0.4972012
000230 75 09 8a bf 0e b7 80 bf a8 11 9f bf 30 43 4f bf
       -1.0784136 -1.0055864 -1.2427263 -0.80961895
000240 a7 73 50 bf 7f c4 8a bf f9 ad ea be 6f d7 6f bf
       -0.8142647 -1.0841216 -0.45835856 -0.936881
000250 47 48 c3 be ee 15 35 bf 1b de 81 bf ce 32 ae bf
       -0.3814108 -0.7073659 -1.0145906 -1.3609254
000260 3d 68 6e bf 0a 3a 87 bf e5 5e 22 bf b0 6c 69 bf
       -0.93127805 -1.0564587 -0.6342605 -0.9118147
000270 31 ed 07 3d dd 63 02 3f 8b 1b b0 3e cc d5 01 3d
       0.033185188 0.5093363 0.34396014 0.031698033
000280 de 36 e8 3e 30 35 0d 3e 30 ec aa 3f 31 a3 84 3f
       0.4535436 0.1378982 1.3353329 1.0362302
000290 f1 19 ac 3f 18 7a 9f 3f d9 8e a9 3f d1 44 c0 3f
       1.3445417 1.2459135 1.3246719 1.5021001
0002a0 21 1a 9a 3f 06 b4 31 3f 78 a4 99 3f 73 ec 90 3f
       1.2039224 0.6941532 1.2003317 1.1322159
0002b0 16 e5 8f 3f ea ba 97 3f 11 33 d6 3f 9c e2 96 3f
       1.1241786 1.1853917 1.6734334 1.1787906
0002c0 64 cc c8 3f 1e ca c1 3f 45 07 c5 3f 50 6a bd 3f
       1.5687375 1.5139806 1.5392843 1.4798069
0002d0 46 17 31 3f e1 15 e3 3e e1 20 37 3f e8 da 22 3f
       0.6917614 0.4435263 0.71534544 0.63615274
0002e0 3b 33 2c 3f 03 c7 54 3f d1 a7 38 bd a6 0f ac bf
       0.6726567 0.8311617 -0.045081917 -1.3442276
0002f0 91 f5 3b be 65 96 87 bd e3 33 a9 bd e0 d6 ef 3d
       -0.18355395 -0.06620482 -0.0826185 0.11710906
000300 ca be b1 3f 99 58 40 3f eb 17 9d 3f 88 3e 95 3f
       1.3886349 0.7513519 1.2272924 1.1659708
000310 13 a9 9c 3f 1b 05 8d 3f ca d2 87 bf 67 95 8f bf
       1.2239097 1.1017183 -1.0611203 -1.1217469
000320 09 5a 2f bf 8d a3 8d bf 87 0a 92 bf 75 58 54 bf
       -0.6849676 -1.1065537 -1.1409463 -0.82947475
000330 a2 c6 95 bf 1e cf b7 bf aa a9 5e bf 85 9c 9f bf
       -1.1701243 -1.4360082 -0.86977637 -1.2469641
000340 80 7f a2 bf 6a f6 95 bf 3e fa d3 be 52 dd 83 bf
       -1.269516 -1.1715825 -0.41401857 -1.0301917
000350 18 03 1c be 94 e2 09 bf 99 10 23 bf 64 28 1f bf
       -0.15235555 -0.53861356 -0.636972 -0.62171006
000360 c4 4a 0d 40 3f 05 0b 40 46 35 0c 40 97 44 22 40
       2.2076883 2.1721952 2.1907516 2.5354364
000370 fd 44 0f 40 dc cc 0d 40 d5 14 27 40 12 4b 24 40
       2.2385857 2.2156286 2.6106465 2.567082
000380 49 e4 34 40 1a e8 31 40 17 b8 2e 40 3f a0 39 40
       2.8264334 2.7797914 2.729986 2.9004056
000390 e3 cc ab 3f 46 b7 7a 3f 17 b1 af 3f 20 f6 e1 3f
       1.3421901 0.97935903 1.3725919 1.7653236
0003a0 d1 42 c1 3f c9 41 f9 3f d1 62 71 40 2d 2f 4d 40
       1.5098516 1.9473201 3.7716563 3.2060044
0003b0 ba 3b 70 40 fb 83 73 40 1c 89 6e 40 73 1b 76 40
       3.7536454 3.8049304 3.7271185 3.8454254
0003c0 4d 4f 09 3e b5 3e 8b c0 fc 63 88 bd 62 c5 6c bc
       0.13409157 -4.3514047 -0.066596955 -0.014451357
0003d0 01 92 8b be 07 ca a2 bd d9 55 19 40 96 a9 c7 3f
       -0.2725983 -0.0794869 2.3958647 1.5598629
0003e0 58 98 1c 40 a9 be 23 40 8e 06 1a 40 be f0 4b 40
       2.4467983 2.558512 2.40665 3.1865687
0003f0 f6 ca 15 40 d8 d1 f3 3e 8e 4e 26 40 7c 29 28 40
       2.3405128 0.47621036 2.5985446 2.627532

bias f4 [9]
000000 01 a0 d0 bf e9 49 a3 40 56 10 b9 40 28 ff e3 bf
       -1.6298829 5.102772 5.783244 -1.7812243
000010 b5 cf c5 c0 5e a3 a0 3f d9 bf fa 3f a1 1f a9 be
       -6.181605 1.2549856 1.9589797 -0.33031943
000020 0d dc 06 40
       2.1071808

weight f4 [9, 54]
000000 87 3a df bf e4 be f5 bf 24 5a fe bf 21 17 fc bf
       -1.7439736 -1.919888 -1.9871259 -1.9694558
000010 7a 97 f4 bf 6f d8 f0 bf 09 c4 1c c0 b7 3b 37 c0
       -1.9108727 -1.881605 -2.449465 -2.8630197
000020 33 7b 2f c0 69 4c 29 c0 fa 0d 30 c0 0c d3 2e c0
       -2.7418945 -2.6452887 -2.750853 -2.7316313
000030 8a fe f1 bf e0 30 02 c0 b4 6c e7 bf 3e da 01 c0
       -1.8905804 -2.034233 -1.8080049 -2.0289454
000040 f8 b1 03 c0 92 0e ee bf 86 be 54 c0 e4 18 6c c0
       -2.0577374 -1.8598197 -3.3241286 -3.6890192
000050 42 ce 2a c0 01 46 5e c0 f3 09 66 c0 e5 1a 68 c0
       -2.668839 -3.4730227 -3.5943573 -3.6266415
000060 05 f7 35 3e 8c f4 56 be fa 2c b5 40 96 a0 24 3e
       0.17770012 -0.20991725 5.6617403 0.16076884
000070 fe 6c 10 be 56 cc f2 bd 51 4f 68 c0 f0 49 7a c0
       -0.14104077 -0.1185538 -3.629841 -3.9107628
000080 59 f0 2f c0 09 25 6c c0 f3 21 75 c0 89 68 69 c0
       -2.7490447 -3.6897604 -3.830197 -3.6470053
000090 c8 1e 36 bf ac d6 08 bf e1 e1 86 3f 2e fa 31 bf
       -0.7114072 -0.53452563 1.0537683 -0.6952237
0000a0 5b 1b 81 bf 7e 45 7b bf e7 1a 8c bf 3d 77 83 bf
       -1.0086473 -0.9815291 -1.094571 -1.0270764
0000b0 d5 9a 04 3f 40 10 83 bf 42 a3 bd bf da 6e a9 bf
       0.51798755 -1.0239334 -1.4815447 -1.3236954
0000c0 d7 6d 52 bf cc a2 10 bf 87 21 77 3f cb ac 48 bf
       -0.8219885 -0.5649841 0.96535534 -0.7838866
0000d0 85 f4 83 bf fb 21 4e bf 00 79 bd 3f 70 7b c7 3f
       -1.0308996 -0.805206 1.4802551 1.5584545
0000e0 47 d4 b4 3f 43 6e bc 3f 63 3e d4 3f d6 3e c0 3f
       1.4127282 1.4721149 1.6581539 1.5019176
0000f0 30 bb e8 3f 64 f0 ed 3f 36 83 c2 3f 26 62 fd 3f
       1.8182125 1.8588986 1.5196292 1.9795578
000100 3b 75 f3 3f 14 0c 01 40 c5 99 ee 3f 46 eb f6 3f
       1.9020151 2.0163622 1.8640677 1.929055
000110 26 c9 cc 3f 5d 69 f1 3f a8 a1 02 40 de b2 f9 3f
       1.5998886 1.8860279 2.0411167 1.9507711
000120 21 f4 c2 3f 34 da ca 3f 6e 1d 8a 3f 37 76 dc 3f
       1.5230752 1.584784 1.0790231 1.7223576
000130 48 58 cd 3f 9b 89 bf 3f b7 64 02 3d b4 3d b3 be
       1.6042566 1.4963869 0.03183433 -0.35008013
000140 6d 08 dc bf 56 06 ba 3c 03 7b 4f 3c 51 ee 00 be
       -1.7190071 0.0227081 0.012663606 -0.1259091
000150 c7 a9 0a 40 61 44 0c 40 ee a2 99 3f 94 f9 14 40
       2.1666124 2.1916735 1.2002847 2.327733
000160 62 5c 0d 40 bb f3 0f 40 79 bf c7 bf 5b 12 ab bf
       2.2087636 2.2492511 -1.5605308 -1.3364977
000170 ac 7c 06 c0 cf 0e c4 bf 25 cf b2 bf 19 c1 cb bf
       -2.1013594 -1.5317019 -1.3969465 -1.5918304
000180 7c fb ae bf 52 b0 97 bf 61 3f 18 c0 ad 46 a2 bf
       -1.3670497 -1.1850684 -2.3788683 -1.2677819
000190 0a e5 ad bf 19 cf 90 bf 95 4c 6a bf 03 b7 48 bf
       -1.3585522 -1.1313201 -0.91523105 -0.78404254
0001a0 6a 55 13 c0 66 a2 80 bf 3c c9 45 bf d3 4d 53 bf
       -2.3020883 -1.004956 -0.77260184 -0.82540625
0001b0 98 57 79 3c ec a5 2a bd dd 84 52 be f9 03 95 bd
       0.015218638 -0.04166214 -0.20558496 -0.07276148
0001c0 2f 60 1f bd 79 19 e1 be ac cf 7e bf 04 4c 33 bf
       -0.038910087 -0.43964747 -0.9953563 -0.70037866
0001d0 62 17 3a bf 7a e2 65 bf 89 05 52 bf 6c 2c 8a bf
       -0.7269193 -0.897987 -0.82039696 -1.0794806
0001e0 6b 54 f0 be fb da 01 bf ae 00 19 bf 6d ff 2a bf
       -0.46939406 -0.5072476 -0.5976666 -0.66796
0001f0 c0 a8 e8 be e8 48 14 bf 15 aa 24 3e f7 e4 28 3e
       -0.45441246 -0.57923746 0.16080506 0.16493593
000200 2b 82 8e be 14 28 7c bd 64 6f b6 3d d3 71 0c be
       -0.27833685 -0.06156166 0.08907965 -0.13715295
000210 7a da 58 3e 8c df 57 3d f7 63 d5 3f c5 25 82 3d
       0.21177092 0.052703425 1.6671132 0.0635486
000220 0e 4f 85 bd 70 44 c3 3d b3 c6 48 3d 2c 80 3a 3d
       -0.06509219 0.09534538 0.04901762 0.04553239
000230 4c 55 b5 be 2a e9 24 be d5 ff c5 bc 31 52 8c bd
       -0.3541664 -0.1610457 -0.024169842 -0.06851614
000240 23 8f ac bf 7e ed d3 bf 57 fc db bf ca 79 06 c0
       -1.3481182 -1.6556852 -1.7186383 -2.1011834
000250 54 24 9c bf 88 2e ca bf 55 98 e8 bf 00 c0 f9 bf
       -1.2198586 -1.579545 -1.8171488 -1.9511719
000260 09 20 b2 bf ae 6a 24 c0 66 5b c4 bf 61 ea 01 c0
       -1.3916026 -2.5690112 -1.5340393 -2.0299304
000270 52 49 b8 bf bc d4 e5 bf 29 62 e7 bf f8 31 0b c0
       -1.4397376 -1.7955546 -1.8076831 -2.1749249
000280 6f 68 aa bf a0 26 be bf 91 be 40 3f 2b 86 29 3f
       -1.3313121 -1.4855537 0.7529078 0.6622035
000290 bf 8a 7f 3f f9 3d 0a 3f 6d 2c 24 3f 54 ca d3 3e
       0.99821085 0.5400081 0.6413029 0.41365302
0002a0 92 98 c5 3f c5 d1 c8 3f c2 2a e5 3f 31 c8 b6 3f
       1.5437186 1.5689017 1.7903674 1.4279844
0002b0 7e ae bd 3f 90 51 b5 3f 2d ee 96 3f 7c 76 8b 3f
       1.4818876 1.4165516 1.1791435 1.0895534
0002c0 66 b1 a0 3f 30 33 63 3f a0 5d 88 3f 83 1c 85 3f
       1.2554138 0.8874998 1.0653572 1.0399326
0002d0 a1 7f ab 3e 64 ba 7b 3e fd 95 37 3f 61 a1 d6 3d
       0.3349581 0.24582821 0.7171324 0.10479999
0002e0 54 86 4e 3e 0d b3 7f 3d d8 6c 2b 3e 4f ed c9 bd
       0.2016843 0.062426616 0.1674074 -0.09859716
0002f0 e7 f8 88 3d a2 57 49 3e c0 5f 16 be 58 58 60 3e
       0.06688099 0.19662336 -0.14684963 0.219087
000300 21 f0 88 3f 6d 79 6c 3f e2 b6 8a 3f 12 ff 4d 3f
       1.0698282 0.9237278 1.0837061 0.8046733
000310 a8 4d 67 3f 38 a0 68 3f d5 04 c1 bf e9 0a ca bf
       0.9035287 0.90869474 -1.50796 -1.578458
000320 59 c3 82 bf 5e d2 e1 bf d4 71 c4 bf 45 2e e3 bf
       -1.0215865 -1.7642324 -1.5347238 -1.7748495
000330 e6 ae 9b bf 51 c3 9b bf 17 3e 49 bf 71 a4 b5 bf
       -1.216275 -1.2168981 -0.78610367 -1.4190809
000340 77 72 94 bf d0 a8 b1 bf 66 6a 91 bf 66 29 9e bf
       -1.1597432 -1.3879642 -1.1360595 -1.2356384
000350 80 36 94 bf 39 78 b5 bf 29 e2 99 bf d2 ef a3 bf
       -1.1579132 -1.4177314 -1.2022144 -1.2807562
000360 9b 50 64 3d bb fe fc 3c 6c 2a 1d be 37 f3 39 3e
       0.055740934 0.030883184 -0.15348214 0.18159185
000370 21 28 bf 3d 8a 8a 23 bd ca 3b b9 be c6 69 74 be
       0.09333826 -0.039927043 -0.36178428 -0.23868474
000380 f0 f8 7c be 9c c6 91 be 5a 97 96 be 7e 2b 2f be
       -0.24704337 -0.2847184 -0.29412347 -0.17106435
000390 b7 c9 11 bf a0 6f 11 bf b2 8a db be 35 0a e6 be
       -0.5694842 -0.5681095 -0.42879254 -0.44929662
0003a0 7a 0e fb be 67 bf d6 be 47 7d 3e 3f b6 4e 4e 3f
       -0.49034482 -0.41942903 0.7440991 0.80588853
0003b0 c2 28 10 3e e7 82 40 3f 42 53 49 3f c1 7f 48 3f
       0.14078048 0.7519974 0.78642666 0.78319937
0003c0 f2 76 9c bb cf 14 a6 bc 42 83 3d c0 2a 40 78 be
       -0.0047749216 -0.020273594 -2.9611363 -0.24243227
0003d0 12 b8 a8 bd 16 c6 55 3c 68 00 ab be 9d d8 88 be
       -0.082382336 0.013047716 -0.33398747 -0.26727763
0003e0 fd ae 1a bf c2 22 a3 be 94 4d 90 be 38 75 20 be
       -0.6042326 -0.31862456 -0.28184187 -0.15669715
0003f0 40 f0 82 40 65 b8 90 40 e9 59 0f 40 0e 39 82 40
       4.0918274 4.522509 2.2398627 4.0694647

bias f4 [9]
000000 12 81 b9 40 a5 ec a6 bf ce dd 3a 40 30 d9 49 be
       5.7970057 -1.3040968 2.919788 -0.19711757
000010 92 3a 54 c0 31 bf ea bf 70 d0 d3 3f 26 23 c0 3e
       -3.3160748 -1.8339597 1.6547985 0.37526816
000020 3d c5 58 c0
       -3.3870385

weight f4 [9, 54]
000000 c2 6b 32 3f 15 17 6b 3f 0e e7 56 3f 9f ce 74 3f
       0.69695675 0.91832095 0.8394631 0.9562778
000010 cf d5 70 3f ac cb 85 3f 8b e2 f4 bd 0d 52 1e 3e
       0.94076246 1.0452781 -0.11957272 0.15460987
000020 db 97 7d 3d ee 59 ec 3c 9b bf 75 3d 9d 1b 1d 3e
       0.0619124 0.028851476 0.059997182 0.15342565
000030 d6 38 fb bd fa 8d da 3d 93 f6 82 3d 61 a4 95 3d
       -0.122667 0.10671611 0.063946865 0.073067434
000040 53 1a 1f 3e 0f 34 fd 3c 76 73 af 3f 67 15 d7 3f
       0.15537386 0.030908613 1.3707111 1.6803406
000050 b2 b7 ce 3f c8 06 8b 3f b2 44 cf 3f 4c b0 db 3f
       1.6149809 1.0861444 1.6192839 1.7163177
000060 20 04 2a bd 94 9c d6 3c 80 be 86 3e e5 39 3c c0
       -0.04150784 0.02619771 0.26317215 -2.9410336
000070 d2 62 53 3d f7 2a 10 bd 67 fc 61 3f 8d 01 98 3f
       0.051607914 -0.035197224 0.8827576 1.1875473
000080 47 20 94 3f 02 79 2f 3f 20 ca 95 3f 50 6a 84 3f
       1.157235 0.6854402 1.1702309 1.0344944
000090 dc 2e ed 3f 94 ed 02 40 23 04 08 40 36 44 8c 3f
       1.8529925 2.0457506 2.1252525 1.0958316
0000a0 77 12 e2 3f da a8 0d 40 4e 57 ca 3f b3 ef e9 3f
       1.7661885 2.213431 1.5807893 1.8276275
0000b0 af dc e5 3f 18 a4 e4 3e 2b 0a aa 3f 55 41 ef 3f
       1.7957972 0.44656444 1.3284353 1.8691813
0000c0 74 32 8e 3f db 56 a7 3f 93 41 af 3f 59 9c 0d 3f
       1.1109147 1.3073381 1.3691887 0.5531669
0000d0 fd 83 85 3f 29 c3 9f 3f 15 ff a0 3f 24 76 8f 3f
       1.0430905 1.2481433 1.2577845 1.1207929
0000e0 b6 74 b9 3f 9f 8e 34 3f 70 e3 8f 3f 23 d2 93 3f
       1.4488742 0.7053012 1.1241283 1.1548504
0000f0 bc 8b 56 3e ac c9 4c 3e dd 3c a8 3e 2a 4c e9 3e
       0.20951742 0.19998807 0.32858935 0.4556592
000100 74 a0 76 3e 84 20 99 3e f4 e6 e4 3e 01 f3 80 3e
       0.24084646 0.2990762 0.44707453 0.25185397
000110 6a 10 06 3f 81 22 0f 3f 05 06 8c 3e b2 3d 91 3e
       0.52368796 0.55912024 0.27348343 0.28367382
000120 dc b4 c0 3f eb a5 aa 3f 7c ed b6 3f 49 5d 1d 3f
       1.5055194 1.3331884 1.4291224 0.61470467
000130 ac 87 a2 3f a7 a3 ad 3f 14 a0 cd 3d 45 9b c2 3e
       1.2697654 1.3565568 0.10040298 0.38009086
000140 99 2a 5c be 50 3e a4 bf d3 bc 4d 3e cd 8c 3e bd
       -0.21500625 -1.2831516 0.20091562 -0.046520997
000150 43 50 1d 3f 8f aa dd 3e 25 eb 12 3f 8d 21 2d 3f
       0.61450595 0.43294188 0.5739005 0.6762932
000160 5f 8d cb 3e 97 19 a4 3e d7 98 1c 40 1b 81 19 40
       0.39756295 0.32050774 2.4468286 2.398505
000170 ad 6f 15 40 47 77 27 3f c3 65 20 40 b8 3f 13 40
       2.3349411 0.6541638 2.506211 2.300764
000180 a0 87 a8 3f db 93 b0 3f 70 40 a7 3f 8d 6a 24 3f
       1.316639 1.3795122 1.306654 0.64225084
000190 b6 d9 c4 3f 0a 91 b0 3f 39 84 b9 3f a4 29 ad 3f
       1.537894 1.3794262 1.4493476 1.3528333
0001a0 5d 29 ac 3f be 0f 32 3f 6f 64 bd 3f 96 6e ac 3f
       1.3450123 0.6955527 1.4796275 1.3471248
0001b0 6c 30 76 3f ff 64 6d 3f b7 08 95 3f 23 d5 99 3f
       0.96167636 0.9273223 1.1643285 1.2018169
0001c0 0c 2e 60 3f 8e 95 a0 3f 0d 1c cd 3f 80 92 c9 3f
       0.8757026 1.254564 1.6024185 1.5747833
0001d0 0f d6 dd 3f 3c 99 03 40 4d b0 c6 3f 8a 7a e4 3f
       1.733095 2.0562277 1.5522553 1.7849896
0001e0 b6 ea bf 3f bf 18 ab 3f de 0e c8 3f 48 03 c1 3f
       1.4993503 1.3366927 1.5629537 1.5079126
0001f0 21 65 a1 3f 7e 93 bf 3f 8c 80 a0 3f 3d 8e 94 3f
       1.2608987 1.4966886 1.2539229 1.1605908
000200 8a f8 a6 3f 62 7c a7 3f 08 99 8b 3f bf b9 b7 3f
       1.3044598 1.3084834 1.0906076 1.435356
000210 ff 04 8a 3e 8e f8 82 bd 03 62 20 be 49 70 2f c0
       0.26956937 -0.06395064 -0.15662389 -2.7412283
000220 bf 68 30 3d 35 e3 5f bc a0 dc f9 3f 9f 62 dc 3f
       0.043068644 -0.01366501 1.9520454 1.7217597
000230 47 7c f4 3f 42 d2 e1 3f cc 34 de 3f 08 07 e3 3f
       1.9100426 1.764229 1.7359862 1.7736521
000240 b9 23 ce be 94 c8 ba be f3 8c 53 bf a7 bb 9b bf
       -0.4026163 -0.36481154 -0.82636946 -1.2166642
000250 3c 0b 92 bc c4 a5 14 be 2f 2b a5 3d 92 b6 0e 3e
       -0.017827623 -0.1451636 0.08064877 0.13936833
000260 7a 1b ba be 2b b3 15 bf 9c cc 14 3f aa 4c b3 3e
       -0.36349088 -0.58476514 0.5812471 0.35019428
000270 26 b8 8a 3e 77 11 22 3e b6 29 98 be eb b0 5d bf
       0.2709362 0.15826975 -0.29719323 -0.8659808
000280 82 f1 06 3f a0 c8 86 3e cc 79 21 c0 df c1 2c c0
       0.5271226 0.2632494 -2.523059 -2.699333
000290 99 ae 24 c0 8d 79 25 c0 d5 c6 23 c0 4a 43 33 c0
       -2.5731566 -2.5855439 -2.5590107 -2.800982
0002a0 f2 a3 34 c0 6e cc 43 c0 86 e6 38 c0 39 a1 3f c0
       -2.8225064 -3.0593524 -2.88907 -2.9942153
0002b0 a2 42 36 c0 e2 88 46 c0 d3 a0 23 c0 4a 96 34 c0
       -2.847817 -3.1021047 -2.556691 -2.821673
0002c0 de ec 2c c0 ab d6 30 c0 02 6b 2e c0 2b d6 2d c0
       -2.7019572 -2.7631023 -2.7252812 -2.7161968
0002d0 b6 e4 2d c0 ed 79 3f c0 fa 9c 39 c0 2b c4 e8 bf
       -2.7170844 -2.9918168 -2.900206 -1.8184866
0002e0 a7 38 38 c0 a4 6a 3c c0 a3 c7 55 be 99 a5 a3 bc
       -2.8784578 -2.9440088 -0.20876937 -0.019976424
0002f0 e0 c9 8d 3e 48 b2 7d 40 77 6d 07 3d be 2f 4d be
       0.2769308 3.9640064 0.03306338 -0.20037743
000300 6c 79 49 c0 54 8c 5d c0 f9 bb 59 c0 18 e7 31 c0
       -3.148036 -3.46169 -3.402098 -2.7797298
000310 cf eb 58 c0 d9 fb 52 c0 31 c5 f1 be 47 ef 2e bf
       -3.3893926 -3.2966216 -0.47220758 -0.6833386
000320 ec 13 0e bf da 65 c9 3f 94 6b 10 bf 28 6f 3f bf
       -0.5549915 1.5734208 -0.5641415 -0.74778986
000330 79 04 19 bf 43 96 55 bf 8f d0 2b bf 88 86 89 3f
       -0.5977245 -0.83432406 -0.6711511 1.0744181
000340 18 78 19 bf 9e ee 57 bf 72 00 c0 be ee 62 1e bf
       -0.59948874 -0.84348476 -0.3750034 -0.61869705
000350 06 ba 14 bf 9b cc 2c 3f 63 40 17 bf 5b 11 f5 be
       -0.5809635 0.67499703 -0.5908262 -0.47864804
000360 d9 38 c5 be 91 85 ac be 73 f1 cb be cf ea bb bd
       -0.38519934 -0.33695653 -0.3983265 -0.091756456
000370 c6 a4 1a bf 63 00 ca be 77 23 8c 3f 8e 91 a1 3f
       -0.60407674 -0.3945342 1.0948323 1.2622545
000380 54 76 8d 3f e1 41 a2 3f 34 22 63 3f c0 90 a0 3f
       1.1051736 1.2676355 0.88724065 1.2544174
000390 3d e7 8b 3f 99 c1 ad 3f 10 78 9f 3f d8 05 8a 3f
       1.0929943 1.3574706 1.2458515 1.0783033
0003a0 a7 86 83 3f 89 16 bc 3f ee 34 2e bc 4a 8b 75 3e
       1.0275468 1.4694377 -0.010632737 0.23978916
0003b0 50 63 83 3e 59 b5 85 be 4a 30 02 3e f9 e7 99 bd
       0.25661707 -0.2611492 0.12713733 -0.075149484
0003c0 bb 38 f4 3d 0d 13 26 bd ca eb fa 3b 4e de 87 be
       0.11924883 -0.040545512 0.007657503 -0.26536793
0003d0 8f 24 42 3e dc 88 38 3e bd 53 cd 3f 02 9a ee 3f
       0.18959258 0.18020958 1.604118 1.864075
0003e0 3d 73 ea 3f 6b 44 68 3f 46 77 e1 3f 8c 65 ee 3f
       1.8316418 0.907294 1.7614524 1.862474
0003f0 c6 6c b9 be 44 8b 52 be 29 ed db 3d d1 0d bc bf
       -0.362158 -0.20560938 0.10738594 -1.4691716

bias f4 [9]
000000 53 96 6d c0 c7 a8 11 c0 73 fa 22 c0 eb f0 b3 40
       -3.7123 -2.2759264 -2.5465362 5.623159
000010 c3 38 91 3f b8 5b 3c 3f ad 01 b4 c0 80 9c a5 be
       1.1345447 0.7357745 -5.6252046 -0.32345963
000020 52 54 c9 3e
       0.39322144

weight f4 [9, 54]
000000 aa 09 ec 3f 1a 3d fc 3f 6c 18 fd 3f fe 0b d1 3f
       1.8440449 1.9706147 1.9773078 1.6331785
000010 15 02 90 3f 73 cc 08 40 66 5f cc 3f 94 1f dd 3f
       1.1250635 2.1374786 1.5966613 1.7275262
000020 05 f4 e2 3f 76 cd c9 3f e5 17 b5 3f 36 d7 cd 3f
       1.7730719 1.5765827 1.4147917 1.6081302
000030 6f 7f 83 3f 99 46 98 3f 65 35 93 3f 27 ea 63 3f
       1.0273265 1.1896545 1.150067 0.89029163
000040 cd fe a6 3f c2 67 4a 3f ff 35 e2 3f 6c 35 fb 3f
       1.3046509 0.7906457 1.7672728 1.9625678
000050 3e e8 f9 3f f6 21 e8 3f 1a d6 2e 3f 44 1d 05 40
       1.9524 1.8135364 0.68295443 2.0799112
000060 d8 20 85 3c 8f 1b 0b 3e 98 85 de 3d 34 fa 43 be
       0.016251013 0.13584732 0.10865325 -0.19138414
000070 a2 f0 9b bf 1c bd 24 3e f4 de 3e 3f 08 b7 6b 3f
       -1.218281 0.16087765 0.7455895 0.9207616
000080 2c 49 65 3f a0 a6 43 3f 22 cc 6b 3f a1 d2 f3 3e
       0.89564776 0.76426125 0.92108357 0.47621635
000090 49 af 29 3f 8f 07 04 3f 18 0e 57 3f 50 e0 af 3e
       0.6628309 0.51574033 0.8400588 0.34350824
0000a0 a7 a4 e5 be b7 43 83 3f f9 13 87 3e 01 23 16 3e
       -0.44852182 1.025504 0.26382425 0.1466179
0000b0 70 40 c1 3e 14 a7 be 3d ef 6d e2 bd e5 ad 9c 3e
       0.37744474 0.093092114 -0.110561244 0.3060142
0000c0 b6 d0 a1 be 45 57 b9 be 63 86 01 be 94 b9 1b bf
       -0.31604546 -0.36199394 -0.1264892 -0.60830045
0000d0 2d 8b fd 3d 97 f6 0a bf ff 52 0f bf 2c 20 14 bf
       0.12380061 -0.54282516 -0.55986017 -0.5786159
0000e0 87 a9 14 bf 2c 7d 1e bf 0c f7 8a bf fa d4 e7 be
       -0.5807118 -0.6190975 -1.0856643 -0.45279676
0000f0 ef d5 70 bf 14 60 81 bf f3 8b 88 bf 58 58 60 bf
       -0.94076437 -1.0107446 -1.0667709 -0.876348
000100 36 da a5 bf c6 e9 7d bf 06 62 54 bf 8d 2d 4c bf
       -1.2957218 -0.99184835 -0.8296207 -0.79757005
000110 a9 19 52 bf 77 c7 4e bf 7b e8 6b bf 1e f2 0d bf
       -0.82070404 -0.8077311 -0.9215161 -0.55447567
000120 12 23 ca bf de 94 e2 bf cc 37 e1 bf 80 30 d2 bf
       -1.5791953 -1.7701681 -1.7595153 -1.6421051
000130 39 40 03 c0 21 1a c7 bf 94 53 1c be 57 83 af 3e
       -2.0507948 -1.5554849 -0.15266258 0.34279892
000140 c7 66 96 be 12 64 b8 be 71 28 74 40 af b6 3e bd
       -0.29375288 -0.36013848 3.8149683 -0.04656094
000150 72 78 f6 bf 57 2d 00 c0 4c 2a fb bf d0 1d e7 bf
       -1.9255507 -2.0027673 -1.9622283 -1.8055973
000160 a4 07 cf bf 54 c3 d7 bf 6e 68 c0 bf 51 04 cf bf
       -1.6174207 -1.6856484 -1.503187 -1.6173192
000170 6e a1 cb bf 29 79 c8 bf d9 4c da bf d8 93 b8 bf
       -1.590864 -1.5661975 -1.7054702 -1.4420118
000180 db ea 01 c0 f5 93 07 c0 8d 97 07 c0 cb 4d ea bf
       -2.0299594 -2.1184056 -2.118625 -1.830499
000190 47 f5 bd bf f7 bf 02 c0 18 27 05 c0 91 7a 05 c0
       -1.4840478 -2.0429666 -2.080511 -2.0856059
0001a0 41 ff 05 c0 7a 6f 01 c0 69 21 93 bf d7 78 df bf
       -2.0937045 -2.022429 -1.1494571 -1.7458752
0001b0 02 9e 4f 3f 5c 27 66 3f d9 83 7e 3f e8 23 70 3f
       0.81100476 0.8990381 0.99419934 0.9380479
0001c0 e9 42 5d 3f 7b 21 8e 3f ab ee 66 3f e0 a8 80 3f
       0.8643022 1.1103967 0.9020793 1.0051537
0001d0 76 e8 86 3f 49 a3 87 3f 8b b9 4d 3f e8 2b 8c 3f
       1.0539691 1.0596706 0.8036124 1.0950899
0001e0 1c 96 5d 3f b0 97 6c 3f 89 bc 80 3f 0f f8 6c 3f
       0.86557174 0.92418957 1.0057536 0.9256601
0001f0 c3 9e 42 3f 12 74 81 3f 6a c9 c0 3f 7f 5a cd 3f
       0.760235 1.0113547 1.5061467 1.6043242
000200 04 41 d4 3f 35 8e d8 3f 4e 7d 94 3f 3f ee e5 3f
       1.6582341 1.6918398 1.160074 1.7963332
000210 70 64 91 be f1 aa 8f 3d d7 8f 45 bd 68 f9 46 be
       -0.2839694 0.07015026 -0.04823288 -0.19431078
000220 cd ad 27 c0 ea 4b 1f be 85 58 a0 3f b8 99 a9 3f
       -2.619983 -0.15556303 1.2527014 1.3250036
000230 6d 49 b0 3f 73 f0 b2 3f c4 25 41 3f e2 b0 b6 3f
       1.3772408 1.3979629 0.7544825 1.427273
000240 17 d6 53 bd aa cd 68 be 8d 65 f7 3d 83 7c 6f 3e
       -0.051717844 -0.22734705 0.12079916 0.23387341
000250 3b bf 26 bf 7e 1a 65 3e 95 90 fe bd 02 6e a2 be
       -0.65135545 0.22373387 -0.124299206 -0.31724554
000260 f3 eb 3d 3c 3c 8f 48 3e 8f 59 5b bf 41 ba 4d 3d
       0.011591899 0.1958589 -0.8568353 0.050226454
000270 8f f8 6e 3d ed f6 27 be d7 3d 48 3e 01 81 9b 3e
       0.058342513 -0.16402788 0.1955484 0.3037186
000280 89 95 21 bf 01 78 5c 3e 22 89 2e 3f 45 00 40 3f
       -0.631188 0.21530153 0.68178 0.7500041
000290 5d d3 84 3f cc 7c 52 3f a6 7c dd 3e 9a 1b bc 3f
       1.0377003 0.82221675 0.43259162 1.4695923
0002a0 3f 0a 3b 3f 4a 22 5f 3f a1 dc 57 3f bf d8 70 3f
       0.7306251 0.87161696 0.8432103 0.9408073
0002b0 93 c3 2b 3f a5 a8 9b 3f 3e 0d 5a 3f 46 9d 28 3f
       0.670953 1.2160841 0.85176456 0.6586498
0002c0 17 93 54 3f ef 99 25 3f fb 37 a1 3e 6b ba 32 3f
       0.8303694 0.6468801 0.31488022 0.698157
0002d0 cf 47 21 3f f5 1b 28 3f d9 6f 2d 3f 8e 36 56 3f
       0.63000196 0.6566766 0.6774879 0.83676994
0002e0 68 ff fa 3e f9 c6 c6 3f 6a 63 66 3c 4f 96 43 bd
       0.49022985 1.5529472 0.014061788 -0.047750767
0002f0 da c8 78 3d c2 8a 05 be 3e c5 e9 be 46 09 ef bc
       0.060738422 -0.13041213 -0.45658296 -0.029179227
000300 11 bd 32 3f e4 93 e8 3e 64 9c e4 3e c7 bf 22 3f
       0.6981974 0.45425332 0.44650567 0.6357388
000310 b6 05 07 be df e9 1b 3f 85 51 ce 3f aa 0b 27 40
       -0.13185772 0.60903734 1.6118628 2.610087
000320 32 5c ec 3f bb 51 d6 3f 9a a8 0e 3f e6 95 0f 40
       1.8465636 1.6743692 0.55726016 2.243524
000330 09 9a d5 3f 8d 43 2e 40 10 2a e4 3f 49 c9 f0 3f
       1.6687633 2.722873 1.7825336 1.8811427
000340 34 8d 12 3f b6 cb 0b 40 47 8e c9 3f 59 18 13 40
       0.5724671 2.1843085 1.5746545 2.298361
000350 f3 a0 d1 3f 89 2a af 3f c6 14 92 be 0b 96 ab 3f
       1.6377243 1.3684856 -0.28531474 1.3405164
000360 fb 57 93 be c9 f9 01 be ed ca ab be 41 a3 1c 3d
       -0.2877806 -0.12692942 -0.33553258 0.03824163
000370 86 09 ff 3d 82 60 86 be 7d 61 d9 3d 36 63 74 3e
       0.12452988 -0.26245505 0.106142975 0.23865971
000380 10 0a d2 3c b6 d7 1f 3e 87 65 7b 3e 5c 51 e1 bc
       0.025639564 0.15609631 0.24550448 -0.027504615
000390 ed b4 20 3d 1c c0 e8 3d 9d 56 13 be 8c 3a 83 3e
       0.039235044 0.11364767 -0.14388509 0.25630605
0003a0 46 c8 2a 3e be 13 54 be 70 85 3c be b9 39 ac be
       0.16677961 -0.20710656 -0.18410277 -0.3363779
0003b0 af 1f c7 be 75 fa 47 be 34 2e ab 3e 05 a9 84 be
       -0.3889136 -0.19529136 0.33433688 -0.25910202
0003c0 7b 7f 9b bd b5 74 0d 3d 74 98 1b be db 51 1c be
       -0.07592674 0.03453513 -0.15194875 -0.152656
0003d0 7b 0f 3c 3e 3c af 30 3d c9 76 9d 3b 63 42 31 be
       0.1836528 0.043135867 0.00480542 -0.17310481
0003e0 75 2c 82 be 7f 4d d0 bd c6 40 8d 3e 7b 8d c2 be
       -0.25424543 -0.10171031 0.2758848 -0.37998566
0003f0 4b eb 2b bf 62 9d 3b bf 48 eb 5e bf b2 68 0e bf
       -0.67155904 -0.7328702 -0.8707776 -0.556285

bias f4 [9]
000000 94 99 76 c0 e5 d8 8a 40 ed 1f c5 bf 44 8f 43 bf
       -3.8531237 4.3389764 -1.5400368 -0.7639048
000010 cf 61 9c bf c0 b6 29 be 99 25 c7 bf 4f 4d 0c 40
       -1.2217349 -0.1657362 -1.5558349 2.1922185
000020 8f 0c 63 40
       3.5476415

weight f4 [9, 54]
000000 62 8f ef 3f be 1e e3 3f f5 e6 fb 3f 7c 04 1d 40
       1.8715632 1.7743757 1.9679857 2.4533987
000010 9f 49 0d 40 4a ae fe 3f e9 77 07 40 d9 11 f5 3f
       2.2076185 1.9896939 2.1166937 1.9146072
000020 7f 91 06 40 c6 d9 1d 40 e3 35 06 40 0d 56 1a 40
       2.1026304 2.4664168 2.097039 2.4115021
000030 9a 0b 97 3f de 70 42 3f bd d0 86 3f 17 bf 9d 3f
       1.1800416 0.7595347 1.0532452 1.2323941
000040 d7 c9 c7 3f 1b d0 c5 3f d6 c9 ab 3f b4 56 a6 3f
       1.5608472 1.5454134 1.342097 1.299521
000050 ab 00 b9 3f 63 7f 9a 3f f8 bc bd 3f 15 00 bc 3f
       1.4453329 1.2070125 1.4823294 1.4687525
000060 e3 9a 92 3e 97 96 02 3f 3a a5 f5 3d fd ce 82 3e
       0.28633794 0.5101103 0.11994405 0.25548545
000070 ad 49 df 3b d4 f4 4e c0 77 14 bd 3e 0f 73 b0 3e
       0.0068142028 -3.2336931 0.36929676 0.34462783
000080 b1 49 06 3e 6e ce 90 3e b8 a3 01 3f aa 6f 57 3f
       0.13114049 0.28282493 0.5064044 0.8415476
000090 59 5c 4f 3f 16 c2 64 3f 37 3e 87 3f 7b 54 33 3f
       0.81000286 0.8935865 1.0565861 0.7005078
0000a0 44 65 5a 3f 99 a5 82 3f ed 4c 52 3f d1 51 67 3f
       0.8531077 1.0206786 0.8214863 0.90359217
0000b0 bd 33 50 3f 04 c6 22 3f 43 fc 40 3f 41 da 9d 3f
       0.81328946 0.635834 0.7538492 1.2332231
0000c0 f3 4a 09 be 4c 97 87 3d 86 83 14 bf e2 f2 cd be
       -0.13407497 0.066206545 -0.5801319 -0.40224367
0000d0 5a 57 d8 bd e6 e5 9e 3e 22 ef e0 3f 43 cd da 3f
       -0.10563536 0.31034774 1.7572978 1.7093891
0000e0 d3 7f d8 3f 19 c8 00 40 b0 27 a8 3f ce 66 c3 3f
       1.6914009 2.012213 1.3137112 1.5265749
0000f0 a0 61 0f 40 48 a4 0e 40 4d 57 10 40 f4 86 0d 40
       2.2403336 2.228777 2.2553284 2.211362
000100 4b ff 0f 40 15 28 06 40 a0 5e 8d 3f 15 16 9d 3f
       2.2499568 2.0961964 1.1044502 1.2272364
000110 59 a1 70 3f 8e 23 b9 3f 9c d2 4b 3f 7e cd a6 3f
       0.93996197 1.4463975 0.7961824 1.3031461
000120 77 ae 1a 3f 95 28 51 3f df 34 4b 3f 0a 19 57 3f
       0.6042246 0.8170255 0.7937755 0.8402258
000130 9f e6 00 3f 94 72 2b 3f ff c5 3a be 66 1c 99 3d
       0.503519 0.6697171 -0.18239592 0.0747612
000140 89 5f cf 3d 58 f8 3f be 6b 63 bd 3d 06 c3 1b c0
       0.10125644 -0.1874708 0.09247478 -2.4337783
000150 e5 eb 07 3d f7 b9 b4 3c 7e e3 d5 be 75 ea 9d 3d
       0.03318395 0.022061331 -0.41775125 0.07710735
000160 05 e7 cc bd 6c c2 e7 3e c1 78 a6 be ce 83 4a be
       -0.10005001 0.4526552 -0.32514003 -0.19776842
000170 f9 c0 3b 3d d7 ab 6a 3b 5e 51 b5 be 44 f1 ad be
       0.04583833 0.003580799 -0.3541364 -0.33973134
000180 21 0f de 3d 94 80 de 3d d6 12 ae bc f4 6d 8b 3d
       0.10842729 0.10864368 -0.021249216 0.06808081
000190 bc 46 19 3e 94 dd a5 3d c4 b3 16 bf b5 89 50 bf
       0.1496839 0.08098903 -0.5886805 -0.81460124
0001a0 a8 dc c2 bf 6b 17 07 bf 08 34 1f bf e3 ab a4 be
       -1.5223589 -0.5277011 -0.6218877 -0.3216239
0001b0 47 b7 d9 be ce 8a 03 bf 33 3c d5 be 12 17 72 bf
       -0.42522642 -0.51383674 -0.4164749 -0.9456645
0001c0 51 7d 6f 3e 3c 7b 94 be 39 e3 31 bf af 04 33 bf
       0.23387648 -0.2900027 -0.6948734 -0.6992902
0001d0 41 3d 0b bf 08 48 72 bf 3c 52 2c bf 92 2d a0 bd
       -0.5439034 -0.9464116 -0.6731298 -0.07821192
0001e0 1b 10 74 be 23 f0 72 be 35 fe 28 be 36 39 80 be
       -0.23834269 -0.23724417 -0.16503222 -0.25043648
0001f0 8d a7 6d be a2 fb b3 3e aa 1e c5 bd 04 b3 f6 3d
       -0.23208447 0.35152918 -0.09624989 0.12045863
000200 7a d1 88 3d 99 85 b5 3d 48 4f e8 3e 4a 32 4c be
       0.066805795 0.08863372 0.45372987 -0.19941059
000210 c2 eb eb bd c8 bb 8a 3b 05 7e 07 be 26 b5 3a bd
       -0.115195766 0.004233811 -0.13231666 -0.045582913
000220 1b fc 74 3c 4a 3e 77 c0 2d 82 53 3e fe ce 98 3e
       0.014952685 -3.8631768 0.20655127 0.29845423
000230 99 80 b0 3e 31 06 8d 3e 8e a8 9d 3e df 5b ea 3e
       0.34473112 0.27543786 0.3079266 0.45773217
000240 65 f9 1f 3f 5f ed 4d 3f 18 e7 2f 3f b9 32 3c 3f
       0.6248992 0.80440325 0.68711996 0.73514897
000250 1d fd 29 3f bf a4 50 3e d5 c7 e2 3e f1 27 26 3f
       0.66401845 0.20375346 0.44293085 0.64904696
000260 9a 9c e5 3e 79 c5 06 3f 0a b5 df 3e 91 85 b6 3e
       0.4484604 0.5264507 0.4369281 0.35648778
000270 ab 4f 65 3f 8f 94 87 3f 87 1b 3a 3f 8f 30 85 3f
       0.8957469 1.0592211 0.72698253 1.0405444
000280 82 71 53 3f eb dd 4c 3f 5f 69 09 40 26 e2 06 40
       0.82595074 0.8002612 2.1470563 2.107553
000290 9a 14 0f 40 b7 35 0d 40 1b ab 06 40 78 ee fc 3f
       2.2356324 2.2064035 2.1041934 1.9760275
0002a0 d4 46 21 40 62 47 23 40 f6 c8 2e 40 c7 9b 21 40
       2.519948 2.5512319 2.7310157 2.525133
0002b0 f0 26 26 40 90 dd 02 40 15 db dd 3f a7 f1 e4 3f
       2.5961266 2.044773 1.7332484 1.7886246
0002c0 03 b0 01 40 92 57 e2 3f 81 92 a1 3f b5 35 a0 3f
       2.026368 1.7682974 1.2622834 1.251639
0002d0 9e 19 b4 3f e3 32 be 3f d5 cc 9e 3f 26 64 bc 3f
       1.4070318 1.4859279 1.240626 1.4718063
0002e0 f2 2d c1 3f e3 3c a7 3f 6a 0b 86 be 15 b8 38 bc
       1.5092146 1.3065456 -0.26180583 -0.011274357
0002f0 2a 0e be 3d 18 e4 45 3d ea 98 20 3d 5b 07 72 c0
       0.09280045 0.04831323 0.03920833 -3.781699
000300 f6 93 1a 3f 4c 38 1f 3f 15 d6 8b 3f ae d0 11 3f
       0.6038202 0.6219528 1.0924708 0.56959045
000310 fc f6 b3 3e 5e 82 02 3e 2c bd 30 3f c4 29 4d 3f
       0.35149372 0.12745044 0.69038653 0.80141854
000320 77 64 44 3e 5d 47 47 3f 59 2b 63 3f 57 94 86 3e
       0.1917895 0.77843267 0.8873802 0.2628505
000330 b5 1d 63 3f 81 ef 87 3f 86 cd 75 3f 4a ec 6f 3f
       0.88717204 1.0619966 0.9601673 0.93719923
000340 8a 6a 80 3f f7 d1 c4 3d cc 01 9e 3b d8 62 72 3e
       1.0032513 0.0961036 0.0048219915 0.23670518
000350 cc 74 34 3f e9 32 a3 3e 4a 61 10 3e 81 fd 33 bf
       0.7049072 0.3187478 0.14099613 -0.7030869
000360 94 ff d2 3f 7c 93 e9 3f 7b dc c9 3f f0 bc ea 3f
       1.6484246 1.8248134 1.577041 1.8338909
000370 17 34 d1 3f f0 a2 2e 3f 89 e4 ca 3f c1 72 e5 3f
       1.6344022 0.6821737 1.5850993 1.7925645
000380 06 5e d1 3f ec 14 da 3f 9d 98 e4 3f 85 3b 2f 3f
       1.6356819 1.7037635 1.7859074 0.68450195
000390 5a 05 a9 3f 5e 43 be 3f 62 2a b3 3f 3c e5 c7 3f
       1.3204758 1.4864309 1.3997309 1.5616832
0003a0 0f ac 33 3f 1e b6 05 3f 5c 5f b0 3f d1 a2 cc 3f
       0.70184416 0.52231014 1.3779101 1.5987188
0003b0 ff ad c1 3f 4e 99 d0 3f 80 94 b0 3f 9b 74 e6 3e
       1.5131224 1.6296785 1.3795319 0.45010838
0003c0 a9 2b 65 3d 5f e8 b5 3d 91 08 fd 3c 92 1c 73 3c
       0.05594984 0.08882212 0.030887874 0.014838355
0003d0 3c 5e ce 3d 45 5a 02 c1 ac 4d 77 3f 58 14 a4 3f
       0.100765675 -8.147038 0.9660289 1.2818708
0003e0 b5 69 9b 3f 73 a3 a3 3f 03 a6 66 3f 9f 2f 9b 3e
       1.2141634 1.2784256 0.90097064 0.3030977
0003f0 b3 7a 83 3f 68 5f 7c 3f 72 3c 8c 3f f6 eb a7 3f
       1.027182 0.9858308 1.0955946 1.3118885

bias f4 [9]
000000 22 89 6c c0 b8 9b 28 c0 17 49 91 c0 14 ba 80 c0
       -3.69587 -2.6345043 -4.540172 -4.0227146
000010 d1 d5 1d c1 16 a4 e2 3f 5e 4f 1e 3f 8b 38 6e bf
       -9.864701 1.7706325 0.61839855 -0.9305503
000020 11 b8 08 40
       2.1362345

weight f4 [256, 54]
000000 cc 73 8f be 8b f3 46 3e 02 33 69 3e a4 d5 49 bc
       -0.28018034 0.19428842 0.22773364 -0.012319002
000010 58 84 a9 bd 3d 82 85 3c 5c 92 17 be 7a 29 07 bd
       -0.08277196 0.016297454 -0.14801925 -0.03299854
000020 67 fa 9d 3d 6e 8f e5 bc a8 fd 3c 3e 19 7c 73 3d
       0.07713776 -0.028022494 0.18456137 0.05944452
000030 3e 13 92 3d 4e d9 11 bd 9e d5 68 be a4 84 14 bd
       0.071325764 -0.03560763 -0.22737738 -0.03625931
000040 cd 4d a9 3d 07 67 ff 3d 60 55 6f 3d 6f e6 07 be
       0.082667924 0.12470823 0.05843103 -0.13271497
000050 fb 61 e2 3c c6 ce 31 3e 38 c6 f6 bd 45 c6 de bd
       0.027634611 0.17364034 -0.12049526 -0.10877661
000060 ad df 2e bd 15 18 c4 bd fa 74 90 bd b1 08 82 be
       -0.042693783 -0.09574906 -0.070535615 -0.25397256
000070 ff 7a 53 bd 59 70 b7 3d 43 13 58 3d 1e ae 51 3c
       -0.05163097 0.089569755 0.052752744 0.01279786
000080 cb e2 9f bc c4 e8 e5 3d 46 d7 e1 3c 09 7d 43 3c
       -0.019517323 0.11226037 0.02756847 0.011931666
000090 11 69 9d bd 8d 00 03 3d a3 1d a3 bd 24 cf 28 be
       -0.076860555 0.031982947 -0.07964637 -0.16485268
0000a0 80 cb 32 3e 93 2c d5 bc 3b e1 b1 be 37 3d 32 be
       0.17460442 -0.026022231 -0.3474215 -0.17406164
0000b0 6d 55 e7 bd 81 1d 4b bc 92 db 66 3d cf 54 37 3d
       -0.112955905 -0.012397171 0.056361742 0.044758614
0000c0 56 38 9a 3c 19 68 18 3e 7d b3 4a bd 23 6c bf bd
       0.018825691 0.1488346 -0.04948758 -0.09346797
0000d0 a2 a7 d6 3b 29 7f 3d bd 0e fa e6 bb 67 8b c0 bd
       0.006550745 -0.046263848 -0.007048852 -0.09401589
0000e0 c6 a6 8b 3d df 85 c9 bd b1 52 6c be 75 52 52 be
       0.06818919 -0.09839987 -0.2307842 -0.20539267
0000f0 22 dc 16 be d6 ff fa bd c1 84 3d be ed 97 b4 bd
       -0.14732412 -0.12255828 -0.18507673 -0.0881804
000100 39 06 9e bd 80 9a 3e 3d 42 74 46 bd 9f 25 3d 3d
       -0.07716031 0.04653406 -0.048450716 0.046178456
000110 02 b8 40 3c 62 3f 29 bb 48 0e e9 bb ee cd d3 3b
       0.011762621 -0.0025825133 -0.007112298 0.0064637577
000120 f4 33 2e 3e 7c e1 81 be 81 35 d9 3d e3 3a c4 bc
       0.17012006 -0.25367343 0.10605908 -0.02395386
000130 4e 11 09 3e 22 f3 21 3c b6 8c 06 bd f5 df f3 bc
       0.13385507 0.009884628 -0.032849036 -0.029769877
000140 b2 04 13 be 46 ff b3 3d c7 00 57 3d 69 89 88 3d
       -0.1435726 0.08788924 0.052490976 0.06666834
000150 31 f5 a1 bd 01 ea 25 bd ba 82 a4 bb e0 33 c0 bd
       -0.07908095 -0.040506367 -0.0050204666 -0.09384894
000160 ec 48 00 3d 52 51 ec 3d 53 54 6d bd c5 ea 2a 3d
       0.031319544 0.11538948 -0.057941746 0.0417278
000170 14 e9 e0 bd dd 9b 89 bd a3 19 fb 3c c5 99 f6 bc
       -0.10981956 -0.06719182 0.030651873 -0.03010262
000180 64 df c1 3d 3f c3 9c be 1f 0a ec bd 4f c8 10 bd
       0.094664365 -0.3061771 -0.11525368 -0.03534728
000190 57 9d d7 bd 21 d8 80 3d 10 0a 0a be ed 02 37 3e
       -0.10528057 0.06291223 -0.13480401 0.1787221
0001a0 c4 03 f5 3d bd dc 86 3e da e9 d2 3d bf fe 37 bd
       0.11963609 0.26340285 0.1029851 -0.04492068
0001b0 db 74 f1 be 39 74 dd bc 98 e4 91 bd 12 38 08 3e
       -0.47159466 -0.027032958 -0.07123679 0.13302639
0001c0 19 ef 1d 3f 4c d9 fa 3e 3d 0f 46 3d 61 10 48 bd
       0.6169296 0.4899391 0.048354376 -0.048843745
0001d0 a5 68 20 3f 2d 65 d0 bc f1 d7 af be 45 5f a0 be
       0.62659675 -0.02543887 -0.34344438 -0.31322685
0001e0 9e b0 18 bd 3f 76 e0 3e fd dc 19 bf 08 db 9b 3e
       -0.03727781 0.43840215 -0.60102826 0.30440545
0001f0 38 5c 23 bf 4d 79 15 be d2 01 f4 be 79 5e 59 3f
       -0.6381259 -0.14597054 -0.4765764 0.8490978
000200 d1 e0 47 3f 88 9f 20 3f b4 63 92 bf 26 82 d0 be
       0.7807742 0.62743425 -1.1436677 -0.40724295
000210 c3 cb 95 3f 70 8d cc bf c5 d1 82 be 33 7c 9c be
       1.1702808 -1.5980663 -0.25550666 -0.30563506
000220 ab 3a b0 3d a0 b1 df be 14 ca d5 3d 6c 7a 0c 3f
       0.0860494 -0.43690205 0.10438934 0.548743
000230 da 74 06 3d 0b 65 81 3d 47 39 e8 3d 9f 91 1a 3e
       0.032826282 0.063181005 0.1133905 0.15094613
000240 c2 09 84 be f1 83 d3 be 15 d2 1b 3f 35 f3 91 be
       -0.25788695 -0.413116 0.60867435 -0.28505865
000250 5b 74 db be 45 5f de be 54 8c 20 bf 49 02 00 3f
       -0.4286221 -0.4343206 -0.62714124 0.50003487
000260 c6 e3 94 3e d0 a4 8c 3f 4a 5a 8b 3e e5 39 e7 bd
       0.29080027 1.0987797 0.27217323 -0.112903394
000270 09 03 37 3f c1 db 1e 3f ee 71 09 bf 55 11 81 be
       0.71489006 0.6205407 -0.5368947 -0.25208536
000280 fc a4 09 be 3f 84 72 3d a1 8b 61 3d 84 8d 59 be
       -0.13441843 0.05920815 0.0550648 -0.2124539
000290 1d 7a 40 3e 52 b9 04 bd 6d 4b 1a be d1 ef 8d 3e
       0.18796583 -0.032403298 -0.15067835 0.27722028
0002a0 53 62 96 be 23 4a a5 be 4e 04 d1 bd 82 c0 8f 3e
       -0.2937189 -0.32283124 -0.10205899 0.2807656
0002b0 0d e5 f2 3d b5 f3 4a be c6 72 94 be b7 2f f6 bd
       0.11860094 -0.1981953 -0.28993815 -0.1202082
0002c0 9e b8 d2 3d 1e 36 4c 3c fd e1 12 be 9e 50 4d bc
       0.10289119 0.012464074 -0.1434402 -0.012531428
0002d0 09 7a e9 3d 83 87 eb bd 65 29 44 3e 59 2b 04 3c
       0.114002295 -0.11500456 0.19156416 0.0080669755
0002e0 fd 4b 1c 3e 30 27 3a be 85 8e c3 3e f0 04 34 bf
       0.15263362 -0.18179011 0.3819467 -0.70320034
0002f0 d7 61 7d be cb de 8a 3e 15 b3 bd bd d5 0f d8 bd
       -0.24744354 0.27123103 -0.09262673 -0.10549895
000300 1b 9f 32 be 48 d8 75 3e ee 61 0c 3e a6 41 e0 3d
       -0.17443506 0.24008286 0.13709232 0.109500214
000310 10 cc b9 3e 2a 44 ae be 43 ff 45 be 38 51 a4 be
       0.362885 -0.3403638 -0.19335656 -0.32093215
000320 94 a9 d4 be 10 8b 01 be 0f 53 38 be 5d c6 c0 bd
       -0.41535628 -0.12650704 -0.18000434 -0.09412835
000330 24 05 45 3d 30 67 db be 8e 63 6e 3e 45 8e b7 3d
       0.048100606 -0.42852163 0.23280165 0.08962683
000340 d1 9e a4 be f2 7a 83 3e 1a 90 83 3e 0e 40 2d 3f
       -0.32152417 0.25679737 0.25695878 0.67675865
000350 ec 0a cd 3e b9 23 1d 3f d5 9c e3 3e 7d 74 3f be
       0.40047395 0.61382633 0.4445559 -0.1869678
000360 d2 b2 83 bd 1a e4 c1 bd 30 f6 77 3e ca 1f 8f 3d
       -0.06430592 -0.09467335 0.24215007 0.06988485
000370 c2 3c 06 3e 2e f2 d2 3c df 74 ba bd 09 b4 40 3e
       0.13109115 0.025750246 -0.09104323 0.18818678
000380 8e b0 2a 3d c8 60 a6 bd 57 6c ff bd 2e ba f8 bd
       0.041672282 -0.08123928 -0.12471836 -0.12144886
000390 de 7f 58 3e fb 14 29 3e 21 b9 14 be 7e e0 07 3e
       0.21142527 0.1651191 -0.14523746 0.1326923
0003a0 24 8b 92 3d 38 5c aa be b4 72 5b be 36 05 04 3f
       0.07155445 -0.33273482 -0.21430475 0.5157045
0003b0 06 cd b7 3d d8 a5 48 3e be 23 a3 3c 41 75 d5 bb
       0.08974652 0.19594514 0.019914504 -0.006514222
0003c0 f1 62 16 be 0d 86 4f 3e 71 f4 1a be f1 ad 53 3d
       -0.1468618 0.2026598 -0.1513231 0.051679555
0003d0 9c 42 02 be f8 7f a9 3c 76 c0 e9 be 59 3c e8 bc
       -0.12720722 0.020690903 -0.4565465 -0.028349089
0003e0 a0 1f 34 bb 26 f9 96 3e d6 40 9f bc fc 86 a5 3e
       -0.002748467 0.2948696 -0.019440096 0.32329547
0003f0 8e c2 be 3d e0 91 87 be 28 f0 8a 3e 24 1c 0e be
       0.09314452 -0.2647848 0.2713635 -0.13877922
